…
= RESTART: C:/Users/Ibrahim Shaik/Documents/flower-project/flower classification.py
tulip: 744
sunflower: 553
rose: 588
dandalion: 792
daisy: 577
Total Flowers: 3254
hi
3254/16
203.375
3254/20
162.7

= RESTART: C:/Users/Ibrahim Shaik/Documents/flower-project/flower classification.py
tulip: 744
sunflower: 553
rose: 588
dandalion: 792
daisy: 577
Total Flowers: 3254
Found 3250 images belonging to 5 classes.
Model: "sequential"
_________________________________________________________________
 Layer (type)                Output Shape              Param #   
=================================================================
 conv2d (Conv2D)             (None, 298, 298, 64)      640       
                                                                 
 max_pooling2d (MaxPooling2  (None, 149, 149, 64)      0         
 D)                                                              
                                                                 
 conv2d_1 (Conv2D)           (None, 147, 147, 64)      36928     
                                                                 
 max_pooling2d_1 (MaxPoolin  (None, 73, 73, 64)        0         
 g2D)                                                            
                                                                 
 conv2d_2 (Conv2D)           (None, 71, 71, 64)        36928     
                                                                 
 max_pooling2d_2 (MaxPoolin  (None, 35, 35, 64)        0         
 g2D)                                                            
                                                                 
 flatten (Flatten)           (None, 78400)             0         
                                                                 
 dense (Dense)               (None, 64)                5017664   
                                                                 
 dense_1 (Dense)             (None, 5)                 325       
                                                                 
=================================================================
Total params: 5092485 (19.43 MB)
Trainable params: 5092485 (19.43 MB)
Non-trainable params: 0 (0.00 Byte)
_________________________________________________________________
hi

= RESTART: C:/Users/Ibrahim Shaik/Documents/flower-project/flower classification.py
tulip: 744
sunflower: 553
rose: 588
dandalion: 792
daisy: 577
Total Flowers: 3254
Found 3250 images belonging to 5 classes.
Model: "sequential"
_________________________________________________________________
 Layer (type)                Output Shape              Param #   
=================================================================
 conv2d (Conv2D)             (None, 298, 298, 64)      640       
                                                                 
 max_pooling2d (MaxPooling2  (None, 149, 149, 64)      0         
 D)                                                              
                                                                 
 conv2d_1 (Conv2D)           (None, 147, 147, 64)      36928     
                                                                 
 max_pooling2d_1 (MaxPoolin  (None, 73, 73, 64)        0         
 g2D)                                                            
                                                                 
 conv2d_2 (Conv2D)           (None, 71, 71, 64)        36928     
                                                                 
 max_pooling2d_2 (MaxPoolin  (None, 35, 35, 64)        0         
 g2D)                                                            
                                                                 
 flatten (Flatten)           (None, 78400)             0         
                                                                 
 dense (Dense)               (None, 64)                5017664   
                                                                 
 dense_1 (Dense)             (None, 5)                 325       
                                                                 
=================================================================
Total params: 5092485 (19.43 MB)
Trainable params: 5092485 (19.43 MB)
Non-trainable params: 0 (0.00 Byte)
_________________________________________________________________
WARNING:absl:`lr` is deprecated in Keras optimizer, please use `learning_rate` or use the legacy optimizer, e.g.,tf.keras.optimizers.legacy.Adam.
…
    tensors = pywrap_tfe.TFE_Py_Execute(ctx._handle, device_name, op_name,
KeyboardInterrupt
3000/22
                                        
136.36363636363637

= RESTART: C:/Users/Ibrahim Shaik/Documents/flower-project/flower classification.py
tulip: 744
sunflower: 553
rose: 588
dandalion: 792
daisy: 577
Total Flowers: 3254
Found 3250 images belonging to 5 classes.
Model: "sequential"
_________________________________________________________________
 Layer (type)                Output Shape              Param #   
=================================================================
 conv2d (Conv2D)             (None, 298, 298, 64)      640       
                                                                 
 max_pooling2d (MaxPooling2  (None, 149, 149, 64)      0         
 D)                                                              
                                                                 
 conv2d_1 (Conv2D)           (None, 147, 147, 64)      36928     
                                                                 
 max_pooling2d_1 (MaxPoolin  (None, 73, 73, 64)        0         
 g2D)                                                            
                                                                 
 conv2d_2 (Conv2D)           (None, 71, 71, 64)        36928     
                                                                 
 max_pooling2d_2 (MaxPoolin  (None, 35, 35, 64)        0         
 g2D)                                                            
                                                                 
 flatten (Flatten)           (None, 78400)             0         
                                                                 
 dense (Dense)               (None, 64)                5017664   
                                                                 
 dense_1 (Dense)             (None, 5)                 325       
                                                                 
=================================================================
Total params: 5092485 (19.43 MB)
Trainable params: 5092485 (19.43 MB)
Non-trainable params: 0 (0.00 Byte)
_________________________________________________________________
WARNING:absl:`lr` is deprecated in Keras optimizer, please use `learning_rate` or use the legacy optimizer, e.g.,tf.keras.optimizers.legacy.Adam.
…
